bank_marketing_classifier.pt (torch, 128544 bytes, 27 tensors)

weight f4 [12, 6]
000000 be a7 ef 3f 4c 81 b8 3f e4 5f 58 3f 1a 43 02 c0
       1.8723066 1.4414458 0.8452132 -2.0353456
000010 cd 05 28 3f 54 1b 97 bf 44 bf d0 bc 12 e8 c3 bf
       0.6563385 -1.1805215 -0.025481828 -1.5305197
000020 51 d7 3f bf a3 39 ca 3f 93 ed c5 be 1c de ac bf
       -0.7493792 1.5798839 -0.38657817 -1.3505282
000030 d9 2e 2b bf 45 6c 0e bf 9b 86 3f bf a0 71 3f 3f
       -0.6686836 -0.55633956 -0.74814767 0.74782753
000040 88 7e cb 3f b8 a7 2e be 0e ec ee be 85 2f db 3e
       1.5897989 -0.17056167 -0.4666447 0.42809692
000050 63 af 3f bf 0a f0 8a 3f ef 57 44 3f f9 5b d4 3f
       -0.74876994 1.0854504 0.76696676 1.6590568
000060 b3 57 9f 3f 47 a0 a0 3f d1 af 11 3f eb 76 a6 3f
       1.2448639 1.2548913 0.569089 1.3005041
000070 cb 43 62 be 69 1f 79 3d 14 1c 69 be 08 a3 55 3f
       -0.22096173 0.06082097 -0.22764617 0.8345189
000080 71 c6 a7 bf 58 b2 57 bf ed b0 66 be 99 4c d6 3f
       -1.3107435 -0.84256506 -0.2252843 1.6742126
000090 15 5e a0 3e 3b 70 c8 be 1c 60 99 3e 42 b8 40 bf
       0.3132178 -0.39148125 0.29956138 -0.75281155
0000a0 42 2f c2 bf 25 8a 78 3f b0 17 57 bf ea 40 14 bf
       -1.5170672 0.9708579 -0.8402052 -0.5791155
0000b0 7f fc 9c bf 92 79 04 40 f5 04 9a bf dc 1b f4 be
       -1.2264556 2.06992 -1.2032763 -0.47677505
0000c0 a3 ca 65 bf 53 3c 27 bf 5f 91 a0 3d 7a 16 04 3f
       -0.89762324 -0.6532642 0.07840227 0.51596797
0000d0 88 71 fc be 1c 3e 94 3f e6 7b 41 bf 7c 4c 33 bf
       -0.49305367 1.1581454 -0.7557968 -0.7003858
0000e0 f2 89 10 3e c2 1b 80 3e 27 9c 50 ba 0a 85 0c be
       0.14115122 0.25021178 -0.0007957839 -0.13722625
0000f0 24 22 47 3e 70 3c 8d bf 00 38 a2 3e b9 7f d6 3f
       0.19446617 -1.1034069 0.3168335 1.6757728
000100 60 10 31 40 7e 40 b1 3e 73 c2 97 bd c9 0c e8 3e
       2.7666245 0.34619516 -0.07410135 0.45322254
000110 1d bf 0e bf 92 5b 86 3f 6f fe bb bf 96 2a b6 3f
       -0.55760366 1.0496695 -1.4687022 1.4231746

weight f4 [3, 2]
000000 4c 4e ea 3f 1f 8a 61 be 53 d4 bb be d7 50 a9 3e
       1.8305144 -0.22025345 -0.36685428 0.33069488
000010 10 96 22 bf a7 c7 87 bf
       -0.6351023 -1.0607804

weight f4 [4, 2]
000000 6a fc 89 be 75 c7 83 bf 12 3b 88 3f 02 e8 36 3f
       -0.2695039 -1.0295244 1.0643027 0.71447766
000010 8a 92 61 c0 87 c9 b5 3c 39 92 df 3d a8 16 74 3f
       -3.524569 0.022190822 0.10916562 0.9534707

weight f4 [2, 1]
000000 07 d1 09 bf 4f 1f 0d bf
       -0.53834575 -0.551259

weight f4 [2, 1]
000000 3e 48 c4 3f 86 84 20 3e
       1.5334547 0.15675554

weight f4 [2, 1]
000000 59 0f 21 bc 90 64 ac 3f
       -0.009830319 1.3468189

weight f4 [3, 2]
000000 40 17 1d bf 74 bc 52 3f 09 8d cb bf 79 6f b0 bf
       -0.613636 0.82318807 -1.5902416 -1.3784019
000010 9c 31 60 be 3f 96 ef be
       -0.21893924 -0.46794316

weight f4 [12, 6]
000000 2b 80 bd 3f 99 9a b0 3e c7 49 b6 bf 59 3c ee bd
       1.4804739 0.3449295 -1.4241265 -0.11632604
000010 28 01 79 bf 7d 5d 75 3f 78 e2 c8 3f 65 80 b2 3f
       -0.9726739 0.95845777 1.5694113 1.3945433
000020 fa 91 d8 be fe 72 7c 3e d9 e9 b0 bf 55 0f fe 3e
       -0.4229887 0.24653241 -1.3821365 0.49621072
000030 95 8f b2 3e 40 b4 77 3f b7 6e ee be ff 69 cd 3f
       0.3487517 0.96759415 -0.46568844 1.6047972
000040 61 f8 d9 be a2 27 ab bf 01 fa 45 be a7 13 27 3f
       -0.4257231 -1.337147 -0.1933365 0.6526436
000050 54 45 f3 bf f7 0f 6a 3e f3 a5 cb 3c 64 20 b1 be
       -1.9005532 0.22857653 0.024859404 -0.34595025
000060 93 a6 d3 bf 81 71 2e 3f f6 05 bb 3f ef 97 9e be
       -1.653521 0.68141943 1.4611194 -0.3097529
000070 97 13 cd bf ba 2b ad 3f 5d df 9b 3f 69 9e 0b 3d
       -1.6021603 1.3528969 1.217754 0.03408662
000080 90 44 a1 bf 12 07 04 3d 70 83 0f bf ad 5e be be
       -1.2599049 0.032233305 -0.5605993 -0.37181607
000090 f1 25 1b 3d e4 c1 b3 3d 8e da 49 bf aa e4 53 be
       0.03787798 0.08777216 -0.78849113 -0.20692697
0000a0 e4 b5 8e bf 57 a8 6a bf 95 ff bf be fa a1 4d 3f
       -1.1149259 -0.91663116 -0.3749968 0.8032528
0000b0 54 ce 04 bf d3 29 c0 bf 9b 9c f6 bf 6f eb 02 3e
       -0.5187733 -1.5012764 -1.9266542 0.12785123
0000c0 1e 2d 6f bf a7 e6 9c bf de 56 43 bf 20 33 18 bf
       -0.9342822 -1.225789 -0.76304424 -0.5945301
0000d0 db ae dd 3f db 18 6f bf 95 43 6f 3f af 94 a4 be
       1.7318987 -0.933973 0.93462497 -0.32144687
0000e0 1f 37 fd 3d 52 e4 d1 3e 58 07 09 be 14 41 12 c0
       0.12364029 0.40994507 -0.13381708 -2.285222
0000f0 b7 fb ad 3f ff fc 0a 3f 85 be 9d 3f 28 ff 9b be
       1.3592442 0.5429229 1.2323767 -0.30468106
000100 77 18 81 3e b8 0d 01 bf fc 7a 84 3f 5b 46 d8 3f
       0.25213978 -0.5041156 1.0350032 1.6896471
000110 cb 46 ae 3c 18 4b 54 bf 91 59 8a bf a5 aa 48 bf
       0.021273991 -0.82927084 -1.0808583 -0.7838538

weight f4 [4, 2]
000000 6b f4 c6 3e 63 f1 c8 3f 15 9b d2 3e 62 6f 7b be
       0.3885835 1.5698665 0.41133943 -0.24554208
000010 e5 b0 a2 3f db 75 b1 be 0f ca da be b2 24 f1 be
       1.2710234 -0.3466023 -0.42732283 -0.4709831

weight f4 [9]
000000 d7 0e 6d 3f df ae 7f 3f 80 94 6f 3f e1 a4 8a 3f
       0.9260077 0.9987621 0.9358597 1.0831567
000010 79 b4 75 3f f2 e7 76 3f e9 ff 8c 3f fb 6c 87 3f
       0.95978504 0.9644767 1.1015598 1.0580133
000020 8a 62 8d 3f
       1.1045697

bias f4 [9]
000000 08 28 1a 3d b5 31 84 bd d3 58 ab 3c aa 55 db bd
       0.037635833 -0.06454793 0.020916378 -0.107096985
000010 55 f8 21 bd 8c f8 c6 3c 82 65 b1 bd d5 ea d3 bd
       -0.03954347 0.024288438 -0.08661939 -0.10347525
000020 80 c0 a9 bd
       -0.082886696

running_mean f4 [9]
000000 c4 09 25 42 a8 b5 9e 44 09 1c 88 41 e6 d6 7c 43
       41.259537 1269.6768 17.013689 252.83945
000010 03 38 4d 40 f2 fc 49 40 06 22 9f 3d 48 f9 a8 42
       3.2065437 3.1560636 0.07770161 84.48688
000020 fb c2 f8 3c
       0.030366411

running_var f4 [9]
000000 97 78 b1 42 57 f8 01 4b b0 c8 80 42 0f a8 84 47
       88.73553 8.517719e+06 64.39197 67920.12
000010 89 39 5b 41 e1 e7 21 44 08 fd ef 3e 4c 02 17 46
       13.701547 647.6231 0.46872735 9664.574
000020 c1 47 66 38
       5.49031e-05

weight f4 [200, 32]
000000 08 bc cf bc 95 40 f7 bd 2c d1 ec bd b4 65 76 3d
       -0.025358215 -0.12072865 -0.11563334 0.060155585
000010 08 4d 3e bd 3d e6 e9 3d 5f 35 2f bd ec af c2 bd
       -0.04646018 0.114208676 -0.042775508 -0.09506211
000020 4f 3a 05 bd 62 08 c8 bd f4 a2 06 bd fc 97 2b be
       -0.03252631 -0.09767224 -0.032870248 -0.16757196
000030 db b6 a1 3d de fa ee bd 1c 4f a7 3d a5 6d 9f 3d
       0.07896205 -0.11668943 0.08169386 0.07784585
000040 70 81 e5 3d bd 46 02 be 42 07 fb 3d 90 f3 8b bd
       0.11206329 -0.12722297 0.12257244 -0.06833565
000050 c2 32 86 3d 12 39 34 3e 59 f1 93 bc ab 3f b6 3b
       0.0655265 0.17599896 -0.01805942 0.005561789
000060 81 dc 54 bd d4 61 15 be 4e 40 c5 3d c9 1a 2b be
       -0.0519681 -0.145881 0.09631406 -0.16709436
000070 4f ce e5 3d 4c aa 1c 3e 46 c5 35 3e 66 47 15 bc
       0.11220991 0.15299338 0.17751035 -0.009111261
000080 22 16 07 be b6 be 1a 3d 60 42 d2 3d 24 1b 30 be
       -0.13192037 0.037779532 0.10266566 -0.17197853
000090 74 09 73 bc d6 3e ec bd 08 bd 03 3c aa e5 b7 bd
       -0.014833797 -0.115354225 0.008040674 -0.08979352
0000a0 67 bc 7c bd 38 03 17 bd c6 39 25 be cb 35 12 3e
       -0.061703112 -0.036868304 -0.1613532 0.14278333
0000b0 85 96 02 3e 66 fd fb bc f4 8b 06 bd ba d8 98 bd
       0.12752731 -0.030760478 -0.032848313 -0.07463212
0000c0 23 f7 2d be 1d cd 20 be bb 6a 5a 3d 48 e3 bc bd
       -0.16988806 -0.15703245 0.053324442 -0.09223038
0000d0 c6 fb cc bd c8 e9 d7 bc 3d 37 9d bd 28 53 2c bd
       -0.100089595 -0.026356593 -0.076765515 -0.04207149
0000e0 46 3f a8 3c 15 b3 6b bd 9b 32 d2 bd 1d cb e5 bd
       0.020537984 -0.057543833 -0.102635585 -0.112203814
0000f0 7d 9a 1b be 4e cd 14 3e 7c c2 b3 bd 23 b1 3f 3d
       -0.15195651 0.14531443 -0.08777329 0.04679979
000100 58 d8 32 bd 74 9e 07 3c 2e d0 1e 3e 12 ea 95 3d
       -0.043663353 0.008277524 0.15509102 0.07320036
000110 a7 2d 13 be 88 ed 96 3d e0 d8 23 3e 24 ff 48 3d
       -0.14372884 0.07369524 0.160007 0.049071446
000120 d2 5f d2 3d 1d 23 2c 3e 14 1a 38 bc 09 39 60 3c
       0.102721825 0.1681027 -0.011236686 0.013685473
000130 80 10 03 be 46 97 26 bd 89 ba 06 3e e7 be b0 3d
       -0.12799263 -0.04067161 0.13157095 0.08630162
000140 22 0e da bd ab a4 12 be 7a 81 ee bd 56 4f 34 be
       -0.10647227 -0.14320628 -0.116457894 -0.1760839
000150 66 32 fc bd 17 11 d8 bc 51 f4 f2 3d 00 89 0c 3d
       -0.123143 -0.026375337 0.11863006 0.03431034
000160 79 7f 14 be 2e 58 13 be b7 f5 0a 3e 22 3a a8 bd
       -0.14501752 -0.14389107 0.13570295 -0.08214213
000170 44 af 28 bc dd 76 0f 3e 36 60 8f bd 2f 57 10 3d
       -0.010295693 0.14010186 -0.07000773 0.035239395
000180 b2 f5 b7 bc 81 32 5f bd e4 fb b9 bd c3 25 08 be
       -0.022456024 -0.054491524 -0.090812474 -0.13295655
000190 6c 63 10 be f3 3e cb bd 97 70 1b 3e e8 e4 98 bd
       -0.14100426 -0.09924116 0.15179668 -0.074655354
0001a0 9e 54 d4 bd dc bc 44 3d 26 c0 65 3d 84 c7 9c 3d
       -0.10367702 0.048031673 0.05609145 0.07655242
0001b0 ca 4a 04 3e 27 30 f1 3d 87 5c 23 be 62 59 cf 3c
       0.12919155 0.117767625 -0.15953265 0.025311176
0001c0 19 60 f0 3d df a3 53 bc 13 f7 c0 bd 08 39 21 3e
       0.11737079 -0.012917488 -0.09422126 0.15744412
0001d0 4c c2 68 bd db 01 a2 bd 11 60 fe bd fb 87 a8 3c
       -0.05682592 -0.0791051 -0.12420667 0.020572653
0001e0 60 a6 9c 3d 8e 26 30 3d 55 78 a2 3d 5b eb e4 bd
       0.07648921 0.04300552 0.07933108 -0.11177703
0001f0 89 86 fe bd 92 7c 6e 3d a5 de 56 3e ed 2e 1a 3e
       -0.12428004 0.05822427 0.2098337 0.15056963
000200 65 7f 5c bd 84 89 fb bb ff d6 c1 bd 40 7b 76 bd
       -0.05383243 -0.0076763052 -0.094648354 -0.060176134
000210 cd be a2 3c dd e5 7f 3d 24 93 e4 3d 3e 66 f3 bd
       0.019866372 0.062475074 0.11160877 -0.118847355
000220 9c 79 7c 3d 4b a6 f1 bd c1 9b e8 3d 9f 90 99 3d
       0.061639413 -0.11799296 0.11357833 0.074982874
000230 e6 8b 7d bc 73 82 2e 3e 83 c1 ed bd e0 b9 68 bd
       -0.015475249 0.1704195 -0.11609175 -0.05681789
000240 ba 05 a1 3d 55 c8 a8 3b e3 13 84 bb 9f 43 21 bd
       0.078624204 0.0051508346 -0.004030691 -0.03937113
000250 59 68 01 3e 8f 0b 0e 3e d6 48 b4 3d a2 4b b7 bd
       0.12637462 0.13871597 0.08802955 -0.08949973
000260 10 2e c8 bd 8c 00 f3 3c 67 9e e9 3d cf b0 dd bc
       -0.09774411 0.029663347 0.11407166 -0.027061848
000270 d7 2f 17 bd 52 e2 30 3e c3 e5 8e 3d cc 22 a8 3d
       -0.036910858 0.17273834 0.06977417 0.08209762
000280 84 fa bd bc fd 56 da bd 78 24 f0 bd f0 a4 ca bd
       -0.023190744 -0.10661123 -0.11725706 -0.098947406
000290 15 25 80 bd 5f 92 8d 3d 1f 19 d1 bc 2a 8e 42 bd
       -0.06257073 0.06912684 -0.025524674 -0.04749886
0002a0 84 60 cc 3d 36 b9 01 3c 1f 64 2f 3e ac de cf bd
       0.099793464 0.007917693 0.17128037 -0.10149893
0002b0 2e 58 92 bd 82 8a cc 3d 0a 06 c5 bd 4c d1 a3 bd
       -0.07145725 0.09987356 -0.096202925 -0.079989046
0002c0 b1 41 de 3c d0 e3 8b bc 04 fd a4 bd 79 e6 6d 3d
       0.027130933 -0.017076403 -0.080560714 0.058081124
0002d0 59 73 35 3e bf 9d a6 3d b2 36 c2 3c c8 49 fa bd
       0.17719783 0.081355564 0.023707721 -0.12221104
0002e0 1f bb 0a bd 78 24 dd 3c 3a c4 96 3d 27 97 9c bc
       -0.03386986 0.026994929 0.07361646 -0.019115044
0002f0 26 9a 1a bd e8 80 27 3e 19 3e 07 be ab c2 3e 3e
       -0.037744664 0.16357768 -0.13207282 0.18628947
000300 3c 6c 9d bd 64 c8 a0 3b 8f c7 32 bd f4 a7 0b 3d
       -0.0768666 0.004906701 -0.043647345 0.03409572
000310 77 61 77 bd 96 0a fa 3d 97 79 ea ba 02 7b 17 3e
       -0.060395684 0.1220905 -0.001788902 0.14793018
000320 c6 eb 2e 3e 2b 1b a9 bd ff fa 0f be 7b 22 09 3e
       0.17082128 -0.08257135 -0.14060591 0.1339206
000330 14 c7 1b 3e 5e b8 10 be 51 34 fc bb c7 4b 32 be
       0.15212661 -0.1413283 -0.0076966663 -0.1741172
000340 9f 89 0c be 23 a5 b6 3c b9 d9 40 3d 0d bd 13 3d
       -0.13724373 0.02229554 0.047082637 0.036068965
000350 da 72 6a bd a1 c5 27 3e b0 ea 94 3c 15 a5 da bd
       -0.057238437 0.16383983 0.018178314 -0.10676018
000360 ed c7 41 bc de b8 7d 3d 05 3c 9d 3d 80 2d cd bd
       -0.011827451 0.06194388 0.076774634 -0.10018444
000370 46 38 88 3d f2 38 b7 bd d4 6e 13 be da 2e c2 bd
       0.06651358 -0.08946408 -0.14397746 -0.094815925
000380 0d ef 1a 3e d5 79 17 3e 64 7a 19 3e 6c 5b c8 3d
       0.15130253 0.14792569 0.14988095 0.09783062
000390 c0 20 00 3e b8 2f a9 bc ea ee ab bd 83 38 b0 3d
       0.12512493 -0.020652637 -0.083951786 0.08604529
0003a0 24 db 95 bd ab ff 0f be 07 ec 25 bd 56 74 0a 3c
       -0.073171884 -0.14062373 -0.040508296 0.008450588
0003b0 34 d8 c4 3d f0 5b 50 bd 96 d2 d7 bd 93 1b c0 3c
       0.0961155 -0.05086893 -0.10538213 0.023450648
0003c0 5b 55 e4 bd e7 11 d3 bd 10 47 a7 3d a1 10 dd bc
       -0.11149093 -0.10306149 0.08167851 -0.026985468
0003d0 de 78 2e 3e 3b a9 2e 3e f6 f7 7c 3d fe 43 a8 3d
       0.17038295 0.17056744 0.06175991 0.082160935
0003e0 ff d1 1f 3d d0 53 07 bb 2c 87 6b bd b4 b7 8f bc
       0.039018627 -0.0020649321 -0.057501957 -0.017543651
0003f0 ae 65 78 3d f1 02 55 3e 5b da 84 bd ad 2e e6 bc
       0.060643844 0.20801903 -0.064869605 -0.028098429

bias f4 [200]
000000 85 b8 e5 bd 46 69 f8 bd 76 6c 01 bd 46 01 eb bd
       -0.11216835 -0.12129454 -0.031597577 -0.11474852
000010 78 f1 44 be b5 dc dd bd 35 c8 9d bc 92 f4 17 3d
       -0.19232738 -0.10833112 -0.019260505 0.037098475
000020 81 f6 8c bc 2f 28 06 bd af 3b 6a 3d 43 b5 b3 bd
       -0.017207386 -0.032753166 0.057185825 -0.08774807
000030 ec a6 0d 3e f7 1e eb 3d 68 59 89 3d 7d fd 3c be
       0.13833207 0.114805155 0.06706506 -0.18456073
000040 78 9f 04 3e b9 6d 9f 3c 23 d5 5d be cc ae 03 3e
       0.12951458 0.0194615 -0.21663336 0.12859648
000050 18 de 22 bd 36 2f 31 3d cf a6 82 3d 95 57 eb 3d
       -0.039762586 0.043257914 0.063794725 0.11491314
000060 d1 d9 16 3e 9c aa 65 be 9c e0 22 3e 36 25 65 3c
       0.14731528 -0.22428364 0.15905994 0.013985923
000070 7a f0 fc bb 04 12 09 be b6 36 24 be 3b e5 12 3e
       -0.0077190967 -0.13385779 -0.16036496 0.14345257
000080 d5 aa 03 3e b8 b9 12 3e dd 0b 29 bb cc ce cb bd
       0.12858136 0.14328659 -0.0025794425 -0.09951553
000090 eb d0 8f 3c e6 38 a9 bd 34 6a 0f be 92 5a 7d 3c
       0.017555675 -0.08262806 -0.14005357 0.015463488
0000a0 fc 37 06 3e c7 0f 30 be 4b a1 6f be 6c dc 5a 3c
       0.13107294 -0.17193519 -0.23401372 0.013358217
0000b0 12 fa 14 be 90 ca f3 bd b5 62 2c bd 49 ae 3c 3b
       -0.14548519 -0.1190387 -0.04208632 0.0028790405
0000c0 f3 81 16 bd fd 00 06 3e c9 ff d3 3d 5e f2 bf 3c
       -0.036745023 0.13086314 0.103515215 0.023431
0000d0 89 36 09 bd 3f a8 af bc b3 50 f4 3d ab 38 80 bc
       -0.033499274 -0.02144253 0.11929455 -0.015652021
0000e0 6b ea 46 be ba 64 31 3d df 56 6a 3d f1 e8 6a bd
       -0.19425361 0.04330895 0.057211753 -0.057351056
0000f0 87 32 aa bc 16 b3 88 bc 44 71 d6 3d 02 bb 10 3e
       -0.020776046 -0.016686957 0.104708225 0.14133838
000100 e5 3d 5f be f3 2b ec 3d 67 79 89 3d b4 c9 00 3d
       -0.21800955 0.1153182 0.06712609 0.03144236
000110 5d ac 10 be e8 74 f0 bd 70 a2 2c 3e 05 02 c9 3c
       -0.14128251 -0.11741048 0.1685884 0.024537096
000120 8d 3f 54 bd d6 83 36 bd ae d3 fe 3d 3a 37 6b bd
       -0.05181842 -0.044559322 0.124427184 -0.057425715
000130 97 3c e6 3d 2e f7 aa bd fc cb 6e 3d cd 7d 69 bc
       0.11242025 -0.08347927 0.058300003 -0.014251185
000140 24 e8 ab bd ba 46 80 bc 46 2a a5 3c 58 54 53 be
       -0.08393887 -0.015658725 0.02016176 -0.20637643
000150 3d ef e8 bc 6c 0c 4f 3d 23 4b 06 3e af e2 0a 3d
       -0.02843439 0.050548956 0.131146 0.03390759
000160 48 81 23 be d3 eb 4f bd c1 97 19 3e 75 95 2f bd
       -0.15967286 -0.05076201 0.14999296 -0.042867143
000170 54 a3 0a 3e ea ad cc b9 1f 18 ea 3d 3b 22 b5 bd
       0.13538867 -0.00039039488 0.11430382 -0.088444196
000180 a0 66 1a 3e 8e 2c 0f bd b7 81 7c bd 73 46 ff 3d
       0.15078211 -0.0349546 -0.061647143 0.12464609
000190 a3 72 6e 3d 85 83 df bd 6b 9f 27 bd 9d b3 2c 3e
       0.058214795 -0.10913757 -0.040923517 0.16865392
0001a0 4b b2 5c 3d 31 98 f1 bd e7 02 02 be 1c 2f f9 bd
       0.05388097 -0.11796606 -0.1269642 -0.121671885
0001b0 db 76 97 3d ec a6 ac 3d ca e7 17 be 7b 7d 3c bd
       0.07395717 0.08430275 -0.14834514 -0.046018105
0001c0 43 f5 06 3d 29 82 30 be a5 d9 da 3d 8b 47 74 bd
       0.032948744 -0.17237152 0.10686044 -0.05963854
0001d0 03 2f e3 bd 0e 3f 0f bd 99 cd 32 3d 63 99 38 3d
       -0.11092951 -0.034972243 0.043653104 0.045068156
0001e0 f4 24 f7 3d 17 39 82 3d 68 eb 9e bd b1 dd 2e 3d
       0.12067595 0.06358545 -0.07759744 0.04269189
0001f0 e1 71 11 3c 14 75 a8 bd f4 38 43 be 9a af bd bb
       0.0088772485 -0.08225456 -0.19064695 -0.0057887556
000200 10 69 c8 bd 48 e1 37 be f5 2b 73 3d 14 f1 79 bd
       -0.09785664 -0.17957032 0.059368093 -0.061020926
000210 fc 97 1f 3e 2d 47 c5 3c d8 a4 b1 3d 59 e1 1f 3d
       0.15585321 0.02408179 0.086740196 0.039033268
000220 80 b7 d2 bb 6a 7e e1 3d 40 39 00 3e 17 5e ba bc
       -0.0064305663 0.1101044 0.12521839 -0.022749944
000230 ee 17 6f bd 9d d7 b2 3c f7 aa d8 bd f4 ec d4 bc
       -0.05837243 0.021831328 -0.10579484 -0.025991894
000240 26 0d 3a 3d fa a6 9d 3d ce 52 67 be e0 10 dd 3d
       0.045422696 0.07697864 -0.22590181 0.10794234
000250 63 a6 0f be a2 72 04 be 7d ff ad bd 03 4b 3d bd
       -0.14028315 -0.12934354 -0.08495996 -0.046214115
000260 d2 5e 27 3c 2c 56 5c be 43 bf 03 3c a8 6f 34 3e
       0.010215478 -0.21517247 0.008041206 0.17620718
000270 a6 f3 07 be a8 e9 55 3d ed a3 3c bd 9c 8e 05 3d
       -0.13276538 0.052224785 -0.04605477 0.032606706
000280 bb 09 c9 3c ce 7f d9 bd 97 bb dc 3a c1 32 61 3e
       0.024540773 -0.1062008 0.0016840574 0.21992017
000290 24 3f 89 3c 15 ca 19 be 2b 07 81 3c 8a 8f 35 3d
       0.01675374 -0.15018494 0.015750488 0.044326343
0002a0 84 bf 2c 3d dd 43 cd bc da e1 83 bc d7 cb d4 bd
       0.04217483 -0.025056774 -0.016098905 -0.10390442
0002b0 04 38 52 3d 64 a4 0a be 47 c6 2a bd 80 2b 9e 3d
       0.051322952 -0.13539273 -0.041693 0.07723141
0002c0 6c 23 ae bd f2 e2 44 bd 15 30 ab bd d7 7c 0a be
       -0.0850285 -0.048067994 -0.0835878 -0.13524185
0002d0 78 23 c9 3d 4c 9f 09 be cd c6 8b bd 78 7f 23 bd
       0.09821218 -0.13439673 -0.068250276 -0.039916486
0002e0 e0 27 1e 3d d5 2f 39 3e 92 9f 11 3e d3 f1 d9 3b
       0.038612247 0.18084653 0.14221027 0.006651142
0002f0 ee bb 15 be 95 2a a4 bc 9c f4 27 3b 00 3a eb 3d
       -0.1462247 -0.020039836 0.0025627976 0.11485672
000300 1c 32 21 bd 67 00 33 be 0e 0b 46 3d 41 3c 24 bd
       -0.03935443 -0.17480622 0.048350386 -0.040096525
000310 b4 57 14 3d 3d 2a 56 3d 78 1e 76 3d 53 c1 d8 3d
       0.036216453 0.052286375 0.06008765 0.10583749

weight f4 [200]
000000 a6 63 7d 3f 39 44 7e 3f 8d e0 7f 3f 83 fc 82 3f
       0.98980176 0.9932285 0.9995201 1.023331
000010 1f 74 8b 3f d3 9a 88 3f 78 3f 7b 3f f0 ed 7b 3f
       1.0894812 1.0672249 0.9814372 0.9840994
000020 55 f9 83 3f b8 a3 7b 3f 0a a5 78 3f 9d 2a 7a 3f
       1.0310465 0.9829669 0.9712683 0.9772127
000030 b9 3a 7e 3f bd 03 80 3f d9 c7 83 3f 12 bc 80 3f
       0.99308354 1.0001141 1.0295364 1.0057395
000040 3a 17 79 3f 12 7a 7c 3f 52 6a 7e 3f 0e b0 81 3f
       0.97301066 0.98623765 0.9938098 1.0131853
000050 7e e6 7d 3f 92 0c 7d 3f 17 d5 8b 3f 7b 82 7d 3f
       0.9917983 0.98847306 1.0924405 0.9902722
000060 29 ca 79 3f a7 8b 85 3f f0 5b 7f 3f 23 50 7d 3f
       0.97574097 1.0433244 0.9974966 0.98950404
000070 64 d0 77 3f a6 23 7d 3f ad bd 85 3f e9 4f 82 3f
       0.96802354 0.9888252 1.044851 1.0180637
000080 37 fc 7d 3f 20 fa 7a 3f a9 8f 79 3f 31 92 7c 3f
       0.99212974 0.9803791 0.97484833 0.9866057
000090 ce b3 78 3f 56 b7 7b 3f f0 ad 80 3f 5d 56 86 3f
       0.9714936 0.98326623 1.0053082 1.0495106
0000a0 58 f0 7a 3f 48 0d 85 3f 04 d4 88 3f bc 97 7b 3f
       0.98022985 1.0394678 1.0689702 0.98278403
0000b0 1a 0b 8b 3f bb 16 82 3f 0a 9b 7c 3f 16 6f 7d 3f
       1.0862763 1.0163187 0.9867407 0.9899763
0000c0 04 07 77 3f 56 c9 7d 3f 40 7e 79 3f 8a a5 82 3f
       0.9649508 0.9913534 0.9745827 1.0206769
0000d0 12 77 7c 3f c3 16 7c 3f 8e ba 7c 3f 4d cc 81 3f
       0.98619187 0.9847223 0.9872216 1.0140473
0000e0 fb ec 7f 3f a4 d3 7d 3f 38 a9 87 3f 46 ee 7c 3f
       0.9997098 0.9915106 1.0598516 0.98801076
0000f0 8d 97 7c 3f f5 cd 7c 3f a2 bd 79 3f dc e9 7e 3f
       0.9866875 0.98751765 0.9755498 0.9957559
000100 38 46 85 3f cf 03 80 3f 51 a9 79 3f 62 70 82 3f
       1.0412054 1.0001162 0.9752398 1.0190547
000110 24 c3 80 3f 03 ca 79 3f a8 87 79 3f 6f 92 79 3f
       1.0059552 0.9757387 0.9747262 0.97489065
000120 43 63 7a 3f dd 3f 7a 3f 4e b5 7f 3f 10 1a 7a 3f
       0.9780771 0.977537 0.99886024 0.9769602
000130 f0 1c 7f 3f e3 03 83 3f 7f 64 7a 3f aa 51 86 3f
       0.9965353 1.0235561 0.97809595 1.0493672
000140 90 49 77 3f 07 a1 81 3f c5 93 7d 3f c2 93 7b 3f
       0.9659662 1.0127267 0.99053603 0.98272336
000150 42 d4 7c 3f 82 54 7d 3f b3 d4 7b 3f 0b ba 7a 3f
       0.9876138 0.98957074 0.9837143 0.9794013
000160 08 32 80 3f 23 ce 78 3f eb 4d 84 3f 6f 71 81 3f
       1.0015268 0.9718954 1.0336279 1.0112742
000170 36 2e 7d 3f 2a 0a 7e 3f a9 1b 7b 3f 68 ae 7e 3f
       0.9889864 0.9923426 0.9808908 0.9948487
000180 da 74 7d 3f ca 84 87 3f 9f 00 7d 3f 3f 5b 79 3f
       0.99006426 1.0587399 0.9882907 0.97404855
000190 19 40 7d 3f 3f 6d 80 3f 42 4b 83 3f af 18 7f 3f
       0.9892593 1.0033339 1.0257342 0.9964704
0001a0 4b ed 7e 3f d4 19 84 3f 32 d2 7b 3f 25 66 79 3f
       0.9958083 1.0320382 0.9836761 0.97421485
0001b0 f1 9b 81 3f a9 e6 7e 3f de 59 7a 3f b8 a5 7d 3f
       1.0125715 0.9957071 0.97793376 0.9908099
0001c0 59 b5 79 3f 03 5c 7c 3f 5c ca 7e 3f 15 e2 80 3f
       0.9754234 0.985779 0.99527526 1.0068995
0001d0 30 c9 85 3f 63 09 85 3f 82 ec 7c 3f d1 cb 7d 3f
       1.0452023 1.039349 0.9879838 0.99139124
0001e0 20 27 82 3f a0 0f 80 3f 06 70 83 3f 09 68 7d 3f
       1.016819 1.0004768 1.0268562 0.9898687
0001f0 31 a3 80 3f 7e b2 77 3f 11 73 80 3f fa 29 7b 3f
       1.0049802 0.9675673 1.0035115 0.98110926
000200 04 3b 7c 3f dd 08 7b 3f 5f 54 7c 3f ef 9a 79 3f
       0.9852755 0.980604 0.9856624 0.97502035
000210 a9 62 7b 3f 8f 73 82 3f 24 9e 77 3f 81 fd 7b 3f
       0.9819742 1.0191516 0.9672568 0.9843369
000220 b2 8d 88 3f 2e 62 79 3f ef d7 77 3f e9 e8 7d 3f
       1.0668242 0.97415435 0.96813864 0.9918352
000230 1e a3 71 3f aa c5 7c 3f de cf 80 3f a5 57 7a 3f
       0.9438952 0.9873911 1.0063436 0.97789985
000240 aa 09 7e 3f 81 44 73 3f 10 04 85 3f 83 4e 7e 3f
       0.99233496 0.95026404 1.0391865 0.9933855
000250 b1 83 86 3f 93 aa 85 3f c6 a4 7b 3f b8 07 84 3f
       1.0508939 1.044268 0.982983 1.0314856
000260 8a 53 88 3f 81 42 86 3f 09 16 83 3f 81 dd 7c 3f
       1.0650494 1.0489045 1.02411 0.9877549
000270 f6 8c 80 3f 53 9a 7c 3f 58 24 79 3f a8 71 7c 3f
       1.0043018 0.9867298 0.9732108 0.98610926
000280 c8 ce 84 3f 1f b3 7b 3f 35 d5 83 3f 6e 5f 7e 3f
       1.0375605 0.9832019 1.0299441 0.99364364
000290 aa 71 7b 3f d3 af 81 3f 61 d5 7c 3f e3 d1 7c 3f
       0.9822031 1.0131782 0.9876309 0.9875776
0002a0 38 e5 7d 3f 46 a0 7e 3f 2b aa 78 3f 5c 80 7f 3f
       0.99177885 0.9946331 0.97134656 0.99805236
0002b0 30 e9 84 3f 2f 95 82 3f 28 47 79 3f 35 3c 83 3f
       1.0383663 1.0201777 0.973742 1.0252749
0002c0 ca 3b 79 3f bd 54 7f 3f a4 53 7d 3f c5 d4 7a 3f
       0.97356856 0.99738675 0.9895575 0.9798091
0002d0 af a6 79 3f 05 8d 87 3f ef d6 7c 3f 91 3c 7a 3f
       0.97519964 1.0589911 0.9876546 0.97748667
0002e0 d3 b3 7b 3f 79 84 7b 3f 1c 7c 7d 3f 24 4b 7d 3f
       0.98321265 0.9824901 0.990175 0.9894278
0002f0 77 03 7b 3f 6e 7e 82 3f 2a 1d 7b 3f 85 cb 85 3f
       0.9805216 1.0194833 0.98091376 1.0452734
000300 02 e6 78 3f b2 79 7a 3f 6c 0e 80 3f 4f e4 7c 3f
       0.97225964 0.9784194 1.0004401 0.9878587
000310 da 27 80 3f 1f 89 7a 3f 8c c0 7d 3f eb f0 79 3f
       1.0012162 0.9786548 0.9912193 0.97633237

bias f4 [200]
000000 89 88 34 bd 98 2a ef 3c 9b c3 12 bd 55 f5 01 bd
       -0.044075523 0.029195115 -0.035831075 -0.031728107
000010 3c 23 93 bd fa 3d 48 bd 7f 8e 4a 3c 22 9c 0b bb
       -0.07184455 -0.04888723 0.012363075 -0.002130278
000020 4b f6 46 bd 3c e0 02 3d 6f ee b7 3c 32 48 01 3d
       -0.048574727 0.031952128 0.022452561 0.03156299
000030 83 34 4c 3c a8 04 70 3d ca e0 2e bd a8 81 31 bd
       0.012463692 0.05859819 -0.042694844 -0.04333654
000040 09 29 6c bc d1 f7 be bc 94 6b 21 bd 88 08 1b bd
       -0.01441408 -0.023311527 -0.039409235 -0.037849933
000050 b0 b1 14 bc 74 fa d1 bc 86 54 a1 bd 88 73 2d bd
       -0.009075567 -0.02563212 -0.0787745 -0.042346507
000060 14 a1 27 3d c9 f9 76 bd e5 60 dd bb 38 74 23 bc
       0.0409251 -0.060296807 -0.0067559355 -0.009976439
000070 da 2a 58 3c 9f 66 38 3c f3 49 17 bd 65 07 92 bc
       0.01319381 0.0112549355 -0.036935758 -0.017825792
000080 9c 90 41 bd 8e 0c 3a bc f7 46 bc 3b d2 0a 39 3c
       -0.04725705 -0.011355532 0.0057457644 0.011294084
000090 fd 2d 35 3b 87 f2 06 3c e6 e1 f7 bc 7c f8 46 bd
       0.002764582 0.008236534 -0.030259084 -0.048576817
0000a0 a0 43 dc 3b ed 03 72 bc f6 8c 4d bd 6e 0c 73 ba
       0.0067219287 -0.014771444 -0.05018326 -0.00092715665
0000b0 4c 61 bb bd 34 31 69 bd 01 a1 c0 bc 13 65 0a bd
       -0.09149417 -0.05693169 -0.023514273 -0.033787798
0000c0 89 62 35 bc cc e1 91 3b 64 06 bf bc 4c 42 f0 bc
       -0.011070856 0.004451966 -0.023318477 -0.029328488
0000d0 7a f5 aa ba b6 73 0c 3b 0c d0 36 3c 81 6b 06 bd
       -0.0013043128 0.0021431274 0.011158001 -0.032817367
0000e0 aa ba cc bc 5c ff fe 3c 16 a5 6a bd f2 b3 a3 bc
       -0.024991352 0.031127624 -0.057286344 -0.019983266
0000f0 ec ad d2 3c d8 c5 2e 3d 31 d5 7d 3c af 22 1e 3c
       0.025717698 0.042669147 0.015492723 0.009651824
000100 99 22 3f bd f4 b2 5d 3c 23 60 e2 3c 3e cb be bc
       -0.046663854 0.013531435 0.027633732 -0.023290273
000110 14 e0 8c bc 4e 3f 20 bd 42 f3 35 bc 79 b6 b3 bc
       -0.017196693 -0.039122872 -0.01110536 -0.021937596
000120 86 0a b5 bb 48 0b 0c bd 2c 9b f3 bc 71 d2 b1 bb
       -0.005524936 -0.034190446 -0.029737078 -0.005426698
000130 b8 42 e0 3c 33 f0 e5 bb 0c f1 8e 3c 66 1a 83 bd
       0.027375564 -0.0070171594 0.017448924 -0.064015195
000140 a5 c4 0b 3d f5 32 b7 bc 81 39 18 bd 86 78 25 3b
       0.03412308 -0.022363165 -0.037164215 0.002524884
000150 82 1a 55 bc 77 3d 0f 3c 0e cc 0a bd c8 c6 0f 3d
       -0.013006808 0.008742682 -0.033886008 0.035101682
000160 6f 03 91 ba b8 20 d7 bc ad 4c 1b bb 4d 3c f4 bc
       -0.0011063645 -0.026260719 -0.0023696825 -0.02981391
000170 2a 42 61 3c d6 0a c2 bc 53 3d a6 3a 76 34 b6 3c
       0.013748685 -0.023686808 0.0012683071 0.022241812
000180 c2 01 a8 bc cb df 81 bd d7 c2 0b 3d a2 8e ef 3a
       -0.02050865 -0.06341513 0.03412136 0.0018276761
000190 75 a2 72 bd b4 bd e1 3b 90 e8 0e bd b5 e8 db 3c
       -0.059236962 0.0068890695 -0.034889758 0.026844362
0001a0 3b 22 25 3a ce 3a 0e bd 42 27 16 3c de 30 cf 3c
       0.0006299351 -0.03472405 0.009164633 0.025291856
0001b0 aa 3f 21 bd 3a 29 46 bc 0e 64 54 3c 3e b4 ea bc
       -0.039367355 -0.01209479 0.012963308 -0.0286504
0001c0 7a c1 30 bc b7 83 67 bc 3a 40 a9 bc 6e 9a 77 3b
       -0.010788316 -0.014130524 -0.020660508 0.0037781256
0001d0 91 89 80 bd ed 97 5d bd c2 b8 68 bd 32 d7 2d 3d
       -0.06276239 -0.054099966 -0.056816824 0.042441554
0001e0 de 0e 8f bc 27 37 12 bd 59 01 99 bc a0 ed cb b9
       -0.017463144 -0.03569713 -0.0186774 -0.00038896222
0001f0 bf e8 8c bc 7d dc dd bc 94 05 17 bd b4 23 57 3d
       -0.017200826 -0.027082676 -0.036870554 0.052524284
000200 55 37 c1 bc 0a 7a 3d 3c 7c b0 13 3d 70 96 8d 3b
       -0.023585955 0.011564741 0.03605698 0.004320912
000210 e9 be 57 3b 4a 1e 18 bd 7e 40 f4 3c 6b ba 82 3c
       0.0032920188 -0.03713826 0.029815909 0.015958032
000220 24 15 80 bd c6 2b 99 bc 7c ed 5c 3a 1c 37 c9 bc
       -0.06254032 -0.01869763 0.0008427722 -0.024562411
000230 0d 53 80 3c 88 c5 ee bc db f4 0b 3c 67 6c 10 bc
       0.015664602 -0.029146925 0.008542265 -0.008814908
000240 d1 91 b4 bb ff d0 02 bd 1d 68 00 bd 4b 96 07 3d
       -0.0055105467 -0.031937595 -0.03134929 0.033102315
000250 33 8d 8b bd c6 ac 6b bc 1b 09 21 3d f4 94 04 bd
       -0.06814041 -0.014384454 0.039315324 -0.032368615
000260 53 f3 6c bd d1 f5 3a 3c b5 b3 41 bd d6 e1 25 3b
       -0.05784924 0.011411146 -0.047290523 0.002531161
000270 7d c2 b4 bc c4 4b c8 bb 19 8a c2 3c 7c 9b 6b bc
       -0.022065395 -0.0061125476 0.02374749 -0.014380332
000280 25 15 64 bd 95 7d f4 bc 80 f3 a1 bd 0c 99 aa 3c
       -0.055684227 -0.029845038 -0.07907772 0.020824932
000290 5d c3 7c 3c 32 c1 a4 bc df 05 2b 3d c9 15 f1 bb
       0.015427438 -0.020111654 0.041753646 -0.0073573333
0002a0 76 c3 60 3c 42 ff 2d 3c a4 80 00 bd 17 8a 41 3d
       0.0137184765 0.01061994 -0.03137268 0.047250833
0002b0 f4 3e f1 bc c4 29 64 bd 76 f1 d2 3c 31 66 62 bd
       -0.029448964 -0.055703893 0.025749903 -0.05527324
0002c0 b3 e5 55 3d 4f f3 4a 3c b3 4e 19 bc 77 97 7a bc
       0.05222101 0.012387111 -0.009357142 -0.015294901
0002d0 3c 17 85 bc af db 84 bb c3 24 a8 3c c0 45 9f 3c
       -0.01624643 -0.0040545086 0.020525342 0.01944244
0002e0 5b 54 19 bc 4b 85 ef 3c 5b 56 d4 bc 9b 98 1f 3c
       -0.009358491 0.029238364 -0.025920084 0.009740974
0002f0 8d f1 f0 bc 39 79 30 bd 3f b6 a4 3a 8c 2c 38 bd
       -0.029412055 -0.043084357 0.0012566521 -0.04496436
000300 85 69 17 3c 1f 0a ea bc d4 3f a7 bb 0f e9 82 bc
       0.009241466 -0.02856928 -0.0051040445 -0.015980272
000310 f3 2e fa 3a 2f 11 b4 bb 30 e0 55 bb b4 e3 e3 3c
       0.0019087478 -0.0054952125 -0.0032634847 0.027818538

running_mean f4 [200]
000000 16 49 6a 3e d5 77 b8 3e c2 90 b8 3e 0e 28 84 3e
       0.22879443 0.36028925 0.3604794 0.2581181
000010 86 cc fd 3c 1f 38 48 3d 35 05 98 3e 32 26 9b 3e
       0.030981313 0.048881646 0.29691473 0.30302578
000020 9d 41 35 3e 43 ea af 3e 1d c8 9f 3e 45 45 31 3e
       0.1770081 0.34358415 0.31207362 0.1731158
000030 81 09 db 3e f4 19 c4 3e b8 83 39 3e 90 19 8a 3e
       0.42780688 0.3830105 0.18116653 0.26972628
000040 80 05 ea 3e d3 09 dd 3e 86 ae ca 3d 53 af 1c 3e
       0.4570732 0.43171558 0.09896569 0.15301256
000050 48 bf 09 3e 53 b9 a9 3e d8 db b8 3d 2f e1 fd 3e
       0.13451874 0.33149204 0.09026307 0.49585864
000060 62 61 f9 3e fb 4f 00 3e 3d 90 ac 3e 70 91 4e 3e
       0.4870711 0.1253051 0.33703795 0.20172668
000070 66 93 40 3e ec b6 06 3e 7a 0f 2d 3e c8 94 ac 3e
       0.18806228 0.13155717 0.16900435 0.3370726
000080 b6 11 6a 3e de 58 bf 3e 7a 1a 9e 3e 34 cc b2 3e
       0.22858319 0.37372488 0.30879575 0.3492142
000090 79 9d 84 3e 9c 69 d1 3e c5 50 aa 3d fb 6a 0c 3e
       0.25901392 0.40900886 0.08316187 0.13712685
0000a0 3b e2 59 3e 76 69 ce 3d 5f c6 b6 3d d6 e1 3c 3e
       0.21277706 0.10078709 0.08924555 0.18445525
0000b0 58 1d a0 3d 14 89 b3 3d ae f2 5e 3e a8 8e 85 3e
       0.07818097 0.0876638 0.21772262 0.260854
0000c0 ec bc 8b 3e 29 5e cf 3e 0b 4e 03 3f 2b be 2d 3e
       0.27292573 0.40501526 0.5129096 0.16967075
0000d0 ab 3f d0 3d cf a4 54 3e 89 31 ad 3e 2e 0d 46 3e
       0.10168394 0.20765994 0.33826855 0.19340965
0000e0 ac ad 92 3e 64 4e 37 3e 86 2c fa 3d 2e 7c 11 3e
       0.28648126 0.17900997 0.122155234 0.14207527
0000f0 21 2c 8d 3e bf bd e8 3e be 80 c5 3e f6 d1 03 3f
       0.2757273 0.45457265 0.38574785 0.5149225
000100 b8 7c a3 3d c2 ec 8b 3e 50 e3 fb 3e 28 0a cf 3e
       0.079827726 0.2732907 0.49196863 0.40437436
000110 b4 b4 64 3d 45 79 85 3e 94 94 09 3f d2 55 23 3e
       0.055836394 0.26069084 0.5374234 0.15950707
000120 47 82 cc 3d 56 e6 44 3e b4 f9 90 3e e1 07 5b 3e
       0.09985786 0.19228491 0.28315508 0.21389724
000130 f4 02 d0 3e f9 41 23 3e c3 b6 ac 3e 8e f2 38 3e
       0.40627253 0.15943135 0.33733186 0.18061277
000140 97 4c a2 3e 7b 17 52 3e 31 fc 89 3e d3 e1 07 3e
       0.31699058 0.2051677 0.2695022 0.13269739
000150 28 c9 ca 3e 20 f5 6e 3e 88 0f 87 3e c2 42 61 3e
       0.39606595 0.23335695 0.26379037 0.21998122
000160 ae 9b 21 3e 7d af 83 3e b9 5d 4b 3e 2c b0 cb 3e
       0.15782043 0.25719824 0.19859971 0.39782846
000170 32 2c 78 3e 31 69 71 3e da 2e 92 3e 60 89 5d 3e
       0.24235609 0.23575284 0.2855137 0.21634436
000180 5c b2 ae 3e 39 8e 94 3d 00 0f ae 3e 95 f8 c2 3e
       0.34120452 0.07253689 0.3399582 0.38080278
000190 9e 25 86 3e e7 ed 6f 3e 21 bc 88 3e 82 cf c3 3e
       0.26200575 0.23430596 0.2670603 0.38244253
0001a0 7b 03 9a 3e 6e aa 39 3e ad 62 84 3e 18 d8 2f 3e
       0.3008078 0.1813142 0.25856534 0.17172277
0001b0 7f 64 3e 3e d7 69 89 3e 4e 57 86 3e 41 50 b9 3e
       0.18593024 0.26838562 0.26238483 0.3619404
0001c0 1a 67 87 3e 48 90 0e 3e af 4d b8 3d ae 6d 1d 3e
       0.26445848 0.13922226 0.08999192 0.1537387
0001d0 d8 f9 d1 3d 05 ed 50 3e 44 45 a4 3e 67 0d aa 3e
       0.10252732 0.20402916 0.32084095 0.3321335
0001e0 5d 62 b2 3e b9 fe 0a 3e 80 ef de 3d e8 b3 a4 3e
       0.3484067 0.13573731 0.10885525 0.32168508
0001f0 36 4f a1 3e 07 38 3b 3e ca b9 87 3e 42 72 32 3e
       0.31505746 0.18283091 0.26508933 0.17426398
000200 e7 25 85 3e 54 bb 81 3e 3a 32 ea 3e 24 b6 be 3e
       0.2600548 0.25338233 0.45741445 0.37248337
000210 c9 a3 05 3f ad a3 c0 3e fa e0 98 3e 9a a7 f7 3d
       0.5220304 0.37624875 0.29859143 0.12092514
000220 52 9a 59 3e 7b dd c1 3e d4 3d dd 3e 1c 67 ad 3e
       0.21250275 0.3786429 0.43211234 0.3386773
000230 95 08 ac 3e d6 76 e3 3d c1 72 21 3e cf 18 50 3e
       0.33600298 0.111066505 0.15766431 0.20321964
000240 b7 fe a1 3e c0 27 6e 3e 47 2a c5 3d 9f 85 fe 3e
       0.31639645 0.23257351 0.096272044 0.4971132
000250 9c b4 0d 3e 21 00 82 3e 06 55 53 3e ef 42 6a 3e
       0.13838428 0.25390723 0.20637903 0.22877096
000260 37 de 83 3e 30 b9 4b 3d d7 2d d7 3d f2 7e e6 3e
       0.25755474 0.049737155 0.1050679 0.45018727
000270 26 1d 4b 3e da df ae 3e 9f 24 42 3e a3 5c 98 3e
       0.19835338 0.3415516 0.18959282 0.29758176
000280 86 60 b3 3d 2b 46 1b 3e 6d 21 e3 3d 7a 85 1b 3f
       0.08758645 0.15163486 0.1109036 0.60750544
000290 6e 3e 31 3e c5 1e 2b 3d 7b ae e9 3e cb a7 7c 3e
       0.17308971 0.04177739 0.4564093 0.24673383
0002a0 36 ad 96 3e b2 79 91 3e ce 6b aa 3e d2 0e 39 3e
       0.29429024 0.2841316 0.33285373 0.1807206
0002b0 05 f0 49 3e 82 f3 c3 3d 61 83 36 3e ba 2e b6 3e
       0.19720466 0.0956793 0.17823555 0.35582525
0002c0 8f 65 22 3e 36 35 63 3e b0 e3 82 3e a9 0c 4f 3e
       0.15859054 0.22188267 0.25564337 0.20219673
0002d0 9f 41 f1 3e 48 df 61 3d 55 cb 54 3e f5 4e 59 3e
       0.47120377 0.05514458 0.2078069 0.21221526
0002e0 05 d7 a3 3e f1 84 a2 3e 07 7f dc 3e 24 32 37 3e
       0.31999984 0.3174205 0.43065664 0.17890221
0002f0 b0 23 10 3e 93 81 42 3e 82 09 a3 3e b8 69 ae 3e
       0.14076114 0.18994741 0.3184319 0.34065032
000300 e4 d9 a4 3e 26 ab 6d 3e 3a 0a 8b 3e 7c 48 cf 3e
       0.32197487 0.23209819 0.2715624 0.4048499
000310 3f 94 43 3e 0c 9f 8d 3e 5b 6b 99 3e a6 5d 90 3e
       0.1909952 0.27660406 0.29964718 0.28196448

running_var f4 [200]
000000 25 dd 2f 3e 58 46 38 3e e3 e6 44 3e a7 84 39 3e
       0.17174204 0.17995584 0.19228701 0.18117009
000010 32 0d 13 3d 7e 77 81 3d 19 43 0f 3e 69 52 66 3e
       0.035901256 0.063216195 0.1399044 0.22492374
000020 58 68 bd 3d ac 0d 92 3e 7a 5f 34 3e 95 70 95 3d
       0.092484176 0.28526056 0.17614546 0.07296864
000030 8e fc 99 3e 29 09 26 3e f0 73 19 3e 0d b2 4f 3e
       0.30075496 0.16214432 0.14985633 0.20282765
000040 d2 c7 8e 3e 27 a7 83 3e d9 c6 70 3d 6d f4 ee 3d
       0.27886826 0.25713465 0.058783386 0.11667714
000050 37 c5 bd 3d e0 77 fd 3d f4 2c 05 3e 1e 1e 59 3e
       0.09266131 0.1237638 0.1300543 0.21202895
000060 57 be 93 3e db 72 fd 3d 1d 88 34 3e 77 0e fb 3d
       0.28856155 0.123754226 0.17630048 0.12258618
000070 58 9b d1 3d 34 d4 8b 3d 51 2b 02 3e d4 3b 9a 3e
       0.102347076 0.06827584 0.12711836 0.3012377
000080 e1 9b 07 3e d7 9b 09 3e 03 a4 19 3e de 8f 76 3e
       0.13243057 0.13438354 0.15003972 0.24078318
000090 d2 b7 ed 3d 3a 83 8a 3e a1 b1 67 3d 31 f2 07 3e
       0.116073266 0.27053243 0.056565885 0.13275982
0000a0 33 cd fc 3d b2 d1 85 3d 03 ea b5 3d 43 8a d8 3d
       0.12343826 0.06534137 0.08882525 0.10573246
0000b0 ef 26 ac 3d e5 86 6b 3d df cc 2c 3e 52 8b 11 3e
       0.084058635 0.057501692 0.16875027 0.14213303
0000c0 3c 95 38 3e 6e c6 80 3e 94 a6 93 3e 5e f7 0a 3e
       0.18025678 0.2515139 0.28838027 0.13570926
0000d0 5b 4c 2a 3d 75 a2 bf 3d 1b b3 19 3e 49 44 b9 3d
       0.041576724 0.09357158 0.1500973 0.090462275
0000e0 72 f1 24 3e df dd bf 3d c4 44 ec 3d 4f 50 96 3d
       0.16107729 0.093684904 0.115365535 0.073395364
0000f0 d7 b3 45 3e 7d 4e 54 3e 5e d7 5f 3e 54 b0 a0 3e
       0.19306885 0.20733066 0.218595 0.31384528
000100 b9 d4 83 3d ea 97 30 3e 17 17 84 3e 23 88 91 3e
       0.06437058 0.1724545 0.25798866 0.28424177
000110 b5 1d 3e 3d 1f 3e 22 3e 4f 69 51 3e 3d c0 be 3d
       0.04641505 0.1584401 0.20450328 0.0931401
000120 db ae 44 3d d4 6c d4 3d cf 8a 05 3e 30 b6 bb 3d
       0.048018318 0.1037232 0.13041233 0.09165609
000130 98 70 70 3e 63 73 15 3e 1b 66 32 3e 7c dc 20 3e
       0.23480451 0.14594798 0.17421763 0.15709108
000140 7e df 42 3e 80 15 fe 3d 24 44 20 3e 01 e1 d9 3d
       0.19030568 0.124064445 0.15650994 0.10638619
000150 9b 04 90 3e 9e 2d d0 3d 17 82 25 3e 65 00 e7 3d
       0.28128514 0.10164951 0.16162907 0.11279372
000160 2c e7 ae 3d c8 c5 c0 3d 87 6e 0e 3e fd e3 88 3e
       0.08540186 0.09412724 0.1390935 0.2673644
000170 7b a5 3d 3e 73 b8 3b 3e e7 46 06 3e 32 f3 a4 3d
       0.18520157 0.1833208 0.13112985 0.08054198
000180 e4 c4 fd 3d ed 28 4b 3d 39 fd 56 3e 86 59 6b 3e
       0.123910695 0.049599577 0.20995034 0.22983369
000190 67 73 27 3e e1 60 f7 3d e1 96 6a 3e ec e1 48 3e
       0.16352616 0.12079025 0.22909118 0.19617432
0001a0 0a ab 23 3e 1f 11 03 3e 88 27 09 3e 36 d4 d4 3d
       0.15983215 0.127995 0.13393986 0.103920385
0001b0 9a db ee 3d 0a 1f 05 3e 08 f1 37 3e c9 5b 5c 3e
       0.116629794 0.13000122 0.1796304 0.21519388
0001c0 07 83 24 3e 03 09 cf 3d 4d 04 67 3d e5 9e e1 3d
       0.16065608 0.10109141 0.056400586 0.11016635
0001d0 16 a2 6f 3d 6a e1 f4 3d 77 e7 4d 3e d6 eb 14 3e
       0.058504187 0.11957057 0.20107828 0.1454309
0001e0 f9 d8 46 3e 63 d2 bd 3d 96 8f d8 3d a9 60 48 3e
       0.19418706 0.09268644 0.10574262 0.19568123
0001f0 16 75 7b 3e c2 14 b7 3d 05 91 1e 3e c8 5a ab 3d
       0.24556383 0.08939506 0.15485008 0.083669245
000200 ad a3 2d 3e f6 72 03 3e 4b 20 95 3e ab 8d 45 3e
       0.16956969 0.12836823 0.291262 0.19292323
000210 c6 73 a3 3e 2c 8c 9b 3e a1 e7 07 3e 53 a0 a2 3d
       0.31924266 0.3038038 0.13271953 0.07940736
000220 eb 60 2b 3e 40 c9 81 3e c2 79 29 3e cc c6 8f 3e
       0.1673619 0.25348854 0.16550353 0.28081357
000230 cf 83 1c 3e 3a d4 63 3d 3c ed bc 3d 45 40 16 3e
       0.15284656 0.055622317 0.09224936 0.14672954
000240 75 9e 3c 3e 89 1e db 3d 9e a8 8f 3d 0e 5c 69 3e
       0.18419822 0.106991835 0.07014583 0.22789022
000250 f3 a9 e2 3d 95 f4 4c 3e 51 7f 11 3e 62 b8 3b 3e
       0.110675715 0.20015176 0.14208724 0.18332055
000260 fe dc 75 3e 5e 30 44 3d a3 0d 8a 3d 9d 21 84 3e
       0.24010083 0.04789769 0.06740882 0.25806895
000270 9a 49 1d 3e 0e 54 55 3e c8 24 97 3d 24 09 6e 3e
       0.15360108 0.20832846 0.07380062 0.23245674
000280 b2 35 89 3d 6e ea c0 3d d1 04 89 3d 52 3d ad 3e
       0.06699695 0.09419714 0.06690372 0.33835846
000290 f6 2e 95 3d f5 fe c5 3c 3c 4c 8c 3e 34 5a 31 3e
       0.07284348 0.024169425 0.27401912 0.17319566
0002a0 c6 b5 1a 3e 66 fc 62 3e be 2a 3e 3e cd 13 e9 3d
       0.15108404 0.22166595 0.18570992 0.1138073
0002b0 8b 49 13 3e ea 71 94 3d d5 e8 cf 3d b6 c9 4f 3e
       0.14383523 0.0724829 0.10151831 0.2029179
0002c0 7a 40 e0 3d 2d 6b 11 3e fa 17 42 3e cb a7 01 3e
       0.10949798 0.1420104 0.18954459 0.12661664
0002d0 69 44 72 3e 7b a7 65 3d fb 7c 1d 3e 2d a4 d8 3d
       0.23658909 0.056067925 0.15379708 0.10578189
0002e0 9d cf 1b 3e ea 05 29 3e 3d 08 68 3e 22 08 df 3d
       0.15215917 0.16506162 0.22659393 0.10890223
0002f0 dd 84 c3 3d 53 9b e6 3d bf 22 39 3e 31 a8 48 3e
       0.09546826 0.112600945 0.18079661 0.1959541
000300 6d 12 1d 3e 5d e3 29 3e 2a df 52 3e 4b e9 9b 3e
       0.1533906 0.16590638 0.20592943 0.30451426
000310 d5 ff d1 3d 88 22 61 3e 69 66 15 3e 35 bd 5c 3e
       0.10253874 0.21985829 0.14589848 0.21556552

weight f4 [100, 200]
000000 71 c5 cc bb a5 9e 78 bd 61 b9 a8 3d 70 04 ba 3d
       -0.006249123 -0.06069817 0.08238483 0.09082878
000010 d5 7d 26 3c 5c ac d3 3d b8 6d 43 3c 8c 89 52 3c
       0.010161837 0.10335609 0.011928014 0.012850177
000020 6c 6e 63 bc 0e 91 c5 bc 5f 01 56 3d 6b 6a 5d bd
       -0.013881307 -0.024117019 0.0522474 -0.054056566
000030 c0 b6 15 bd 96 a6 35 3d be 36 c9 bc 93 16 c2 3d
       -0.036551237 0.04434832 -0.024562236 0.09476962
000040 0d 15 29 3d 02 4e 0e 3d a3 ba 39 3d a8 b2 c9 3c
       0.04127984 0.034742363 0.045344006 0.024621323
000050 f1 02 85 3d 65 3c 40 3c 72 e8 03 bc 00 f9 14 bd
       0.06494702 0.011733149 -0.008051025 -0.036370277
000060 41 98 8a bd 42 62 de 3c dc 9c 23 3d d4 16 03 bd
       -0.067673214 0.027146462 0.039944515 -0.032004192
000070 8e 44 18 3c 02 19 02 3d ec 0b 9d 3d 8a c2 97 3a
       0.009293688 0.03176213 0.076682895 0.0011578363
000080 44 7d f0 3c 5d dd 1a bd 51 66 7d 3d dd 0a 5a bd
       0.029356606 -0.037808765 0.061865155 -0.053233016
000090 f8 54 14 3b 03 b3 97 3b 74 4a 1e bd b2 c5 0b bd
       0.0022633653 0.004629494 -0.038645223 -0.034124084
0000a0 64 a5 d3 bb 98 51 08 bd 21 d6 91 3d 93 ba 07 bb
       -0.006458925 -0.03328094 0.0712092 -0.0020710572
0000b0 f6 a8 08 3c d5 22 37 3d fe 95 d1 3b 8b a9 2d bc
       0.008341065 0.044710953 0.0063960543 -0.010599504
0000c0 e4 a8 53 3d 99 71 1f bd c9 bc 79 bd 6b 23 e0 3b
       0.05167474 -0.038926695 -0.060971055 0.0068401597
0000d0 8f 1b 1f 3d 3d 93 0a bd e6 da d5 3c 4e fa ab 3d
       0.03884464 -0.033831824 0.026105355 0.08397351
0000e0 e4 fe fc 3b ae ee 3d bd a5 3b a3 3d a9 fc 35 3d
       0.007720815 -0.0463702 0.07970361 0.04443041
0000f0 10 69 11 3c ea ca 88 bd 61 0d 96 3a 1f a4 e8 bc
       0.0088751465 -0.06679328 0.0011448079 -0.028398572
000100 2a df 05 bc 4b 46 80 3d 15 7a 78 3d 54 d6 37 3d
       -0.008170882 0.06263407 0.0606633 0.044882134
000110 de f3 1b bd 3f 11 71 3d d9 4a f8 3c 01 97 58 3d
       -0.038074367 0.058854338 0.030309128 0.052878384
000120 a6 f9 17 bc 91 d0 9a 3b 03 9a 47 bd 6a a3 10 3d
       -0.009275829 0.00472457 -0.04873086 0.035312094
000130 e0 61 fd bc d5 3c 0a bd c7 39 42 3d 7c a1 f9 3c
       -0.03093046 -0.03374942 0.047418382 0.03047251
000140 52 0a 28 3d 07 a5 bc 3c 68 5b f9 3c 5a cc 94 3d
       0.041025467 0.02302791 0.030439094 0.072655395
000150 49 5b 88 3d 39 5c bf bc 70 a7 e5 3c ca 57 2b 3d
       0.06658036 -0.023359405 0.028033942 0.04183177
000160 de 14 16 3d 6d 70 4e bc 4e 3d a7 3d 2f 20 b3 3d
       0.036640994 -0.012600047 0.0816599 0.08746373
000170 46 c5 02 39 8e f1 4c 3d 40 c3 05 3c c9 eb 10 3c
       0.00012471256 0.050035052 0.008164227 0.008845278
000180 30 08 8e 3d eb bd 19 3d 36 cb 8f bc 33 7b 75 bc
       0.069351554 0.037534636 -0.017552953 -0.014982986
000190 52 ef 43 bc 62 5e 0e 3d ac 99 15 bd dd 4f 42 bd
       -0.011958914 0.03475798 -0.036523506 -0.047439445
0001a0 82 f0 c2 3b 79 ff 16 3d ca b9 2c 3c d1 6b 4e 3a
       0.005949081 0.03686473 0.010542342 0.0007874342
0001b0 43 a8 bd 3d a4 20 a1 bd b3 3d 30 bd 20 90 30 3d
       0.09260609 -0.07867554 -0.04302759 0.0431062
0001c0 66 23 96 bd 9f f6 98 bd fa 63 b3 3d f7 d5 81 3d
       -0.073309705 -0.07468914 0.087593034 0.06339639
0001d0 a2 1f 10 bc cd 16 5a 3d 3b 89 d3 3c bd a1 a1 bc
       -0.008796604 0.0532444 0.025822273 -0.019730443
0001e0 f3 71 9b 3d 01 10 f9 3c e3 d9 9f 3d 4e 0c 64 bd
       0.075900935 0.03040314 0.078052305 -0.055675797
0001f0 f6 04 9b bc 11 fa a8 3c 17 a5 3a 3d 88 fd e3 bb
       -0.018923264 0.020627053 0.0455676 -0.0069577135
000200 7d ab 3a 3d dc eb a2 bd 15 a2 5d 3a f7 88 66 3d
       0.0455737 -0.07955143 0.0008454633 0.056282964
000210 0a 11 17 bd c9 5f 96 bc ca ea 8e bc 7e d0 03 bd
       -0.036881484 -0.01835622 -0.01744594 -0.032181256
000220 fb 19 85 3d 61 18 99 bc dc 63 b1 bc 9a 0d 6e 3d
       0.06499096 -0.018688383 -0.021654062 0.05811844
000230 63 b3 84 3c 35 08 91 bd 70 2f 94 bd 7f e8 01 3d
       0.01619882 -0.070816435 -0.072356105 0.031715866
000240 45 d5 54 3d b1 a8 b9 3c 87 66 ba bc e0 0e 84 bc
       0.051961202 0.022663446 -0.022753967 -0.016120374
000250 b8 d5 b3 3d dc 99 b9 3d fb 5f 82 3d e6 3a d3 3d
       0.08780998 0.090625495 0.06365963 0.10313968
000260 f0 d2 af 3c f9 56 17 bd ec fd 6d 3d 44 78 bc 3c
       0.021462888 -0.036948178 0.058103487 0.023006566
000270 17 76 8e bc e9 06 37 bb 2f ff 38 bc 0b 62 69 bd
       -0.017390294 -0.0027927703 -0.011291309 -0.056978267
000280 26 3f 00 3d 55 fc a5 bc 13 c0 36 3d 93 b5 16 bb
       0.031310223 -0.020261923 0.04461677 -0.002299641
000290 9d 2d a1 3c 5c ab 89 3d 58 16 d2 bc bb d9 4a b9
       0.01967507 0.06722137 -0.02564542 -0.00019345332
0002a0 21 31 c9 bc 1a ea f0 bb ee 96 1b bd 8c 4a 32 3d
       -0.02455956 -0.007352126 -0.037985735 0.043528125
0002b0 8a 56 c3 3d 50 bc 26 3d 69 bb 91 3d 2d 7b 52 3d
       0.095379904 0.040706933 0.07115824 0.051387
0002c0 5a 84 0d 3d b8 3b ae 3d 5e b4 aa bc 03 f9 b5 bb
       0.03455005 0.08507484 -0.020837959 -0.005553366
0002d0 86 1d 01 3d cf 4d 0d bc b6 3d 0d bd e3 67 66 bc
       0.031522296 -0.008624508 -0.03448268 -0.014062854
0002e0 e9 54 4c bc 74 59 87 bc d2 f5 03 bd 71 c3 8d 3c
       -0.012471416 -0.016522147 -0.032216854 0.017305108
0002f0 22 84 33 3d c8 8b 21 bc 0a a5 ba 3c c8 40 2f bd
       0.043827184 -0.009859987 0.022783775 -0.04278639
000300 1f 72 eb bc 3f 5a c9 bb b9 3d 95 3d 0d 32 3a bd
       -0.02874094 -0.0061447914 0.07287163 -0.04545789
000310 ae c0 a0 3c 63 bf 38 3d c0 d1 38 bd 9c bd 5d bd
       0.019623127 0.045104396 -0.04512191 -0.054135904
000320 ee 5e 1a 3d 8a c8 d0 bc f1 a0 86 3d d5 96 63 bd
       0.03768819 -0.02548625 0.06573666 -0.055563767
000330 bd 35 cd 3d e5 b5 98 bc 86 ff 02 3d 0b d8 ee 3c
       0.100200154 -0.018641422 0.031981967 0.029155752
000340 74 eb 94 bd f8 47 09 bd 77 c3 43 bc 70 2c 36 bb
       -0.072714716 -0.0335159 -0.011948458 -0.0027797483
000350 dd 76 06 3d b8 f6 94 bc 24 de fd 3c e1 81 da bc
       0.0328282 -0.01818405 0.030989714 -0.02667326
000360 32 4e 23 bd 75 27 6e 3d dd 17 66 3b a4 ae 09 bd
       -0.039869495 0.058143098 0.0035109438 -0.033613816
000370 3a 4c 71 3c 33 e1 4e bc df 5f 4d 3d 3b 67 c2 bc
       0.0147276465 -0.012626934 0.050140258 -0.023730865
000380 f8 61 2d bb bb 95 a5 bc 98 2c 86 bc 00 b4 8d 3c
       -0.00264561 -0.020212999 -0.016378686 0.017297745
000390 84 34 b7 3c a6 62 82 3c b3 fd b8 3d 8c dd 47 3c
       0.022363909 0.01591618 0.09032764 0.012198817
0003a0 0c 87 c3 3b d5 37 9d 3c f5 be 7e bd b7 98 11 3d
       0.0059670266 0.019191662 -0.06219383 0.03554603
0003b0 18 6e 14 3d 08 ea c6 3b c3 59 11 bd 1b de b5 3d
       0.036237806 0.006070379 -0.035485994 0.08880254
0003c0 0e ad 2b 3c b5 fe af 3d b6 b1 02 3d 9f 5c 58 3c
       0.010478271 0.085935034 0.03190776 0.013205676
0003d0 2e 43 65 3c 44 1d 21 3d 78 ba 37 3d f2 02 18 3b
       0.013993068 0.03933455 0.044855565 0.0023195115
0003e0 02 12 65 bd 8f d6 1b bd d3 56 16 bd f3 ee 85 3b
       -0.055925377 -0.038046416 -0.036703896 0.004087323
0003f0 b6 93 7c bc d3 89 8b 3d df 46 18 bd 4f 33 43 bd
       -0.015416076 0.06813397 -0.037176963 -0.047656354

bias f4 [100]
000000 21 10 a5 bd 50 89 20 3d cc 00 fd 3c 39 98 26 3d
       -0.08059717 0.03919345 0.030884169 0.040672515
000010 3a 1a 65 3d 0c 60 38 bd 19 55 ac bd bd 6b 39 bd
       0.055933215 -0.045013472 -0.084146686 -0.045268763
000020 4b 30 ef 3c 14 2e e6 bb 7a 9c a1 bd d0 b6 bc bc
       0.029197833 -0.007024536 -0.07891174 -0.02303639
000030 48 a5 a4 bd ba 63 03 bd 2d d9 12 be 1c 18 11 bd
       -0.080393374 -0.03207753 -0.14340658 -0.035423383
000040 5d d3 5f 3d 96 a1 fc bc 1c 65 ec bc c0 9d df bd
       0.05464493 -0.030838769 -0.028856806 -0.1091876
000050 7e 1a 8d bd b1 d5 9c ba 5a e1 24 bd f3 e6 bb 3c
       -0.068898186 -0.001196554 -0.040253974 0.022937274
000060 70 ac 90 bd 37 95 0a 3d 74 96 5e 3d 15 36 7c bd
       -0.0706414 0.03383371 0.054342702 -0.061575014
000070 9c a2 27 3d c8 33 2f 3c 93 61 93 bd cd f2 84 bd
       0.04092656 0.010693498 -0.07196345 -0.06491623
000080 74 77 d8 3d a2 8b 25 3d 70 4d 9c bc 57 59 c3 3c
       0.10569659 0.040416367 -0.019079894 0.023846311
000090 63 1b a1 bb 1e 81 01 bd 19 a1 2a 3d c0 44 cd bd
       -0.004916595 -0.031617276 0.04165754 -0.10022879
0000a0 e4 cd fc ba 4e d0 fd bc 1b cd ed bc 58 09 9b bd
       -0.0019287434 -0.030983116 -0.029028466 -0.075701416
0000b0 3b 67 c0 bd 0c 8d 86 bd 5f 7e c8 bc bf da 28 bd
       -0.0939469 -0.06569871 -0.024474321 -0.041224238
0000c0 fd 8f 53 bd 26 eb 9d bd 58 06 2f bd cd 08 ad bb
       -0.05165099 -0.07710867 -0.04273066 -0.00528059
0000d0 a3 ee 37 3d 98 f8 45 3a 30 0a 52 bd fc bf 88 3c
       0.044905316 0.0007551997 -0.051279247 0.016693108
0000e0 db fa d4 bc d0 4a 29 3d 43 15 25 3d a8 58 96 3d
       -0.025998523 0.041331112 0.04030348 0.073411286
0000f0 f4 47 60 bc ba 30 04 bc f2 16 b2 bd 5e 3f 77 bd
       -0.01368903 -0.008068258 -0.08695783 -0.060363166
000100 99 7b da 3b 6f 93 d3 3b 17 67 2b bd a4 c4 82 bc
       0.006667566 0.0064567844 -0.04184636 -0.015962906
000110 5e 4a 7e 3c 20 53 dd bc e3 33 83 bc c7 8d 54 bc
       0.01552066 -0.027017176 -0.016015952 -0.0129732555
000120 e5 af 16 bd ab 61 28 3d da 5c 49 bc a4 eb 9a bd
       -0.03678884 0.04110877 -0.012290204 -0.07564476
000130 8e 81 02 3d 79 7b d2 bd 08 90 27 3d a2 2d aa bc
       0.031861834 -0.10277457 0.040908843 -0.020773713
000140 cc 95 3e bc 3d d4 ae 3d 60 6e 73 3d ed 8c 8b bd
       -0.011632394 0.08536575 0.059431434 -0.06813989
000150 24 5f 7c bc 88 2b 4d 3d 67 b0 1c 3d b0 9c 64 bd
       -0.015403543 0.050090343 0.038254168 -0.05581349
000160 3c b0 88 ba 73 48 c0 bd ea cb 8e 3b bf 54 36 bd
       -0.0010428498 -0.093888186 0.0043578045 -0.044514414
000170 5c 7f 6e bd 14 5c a0 3d 77 7b 2e bd 08 3e 0c 3d
       -0.058226928 0.078300625 -0.042598214 0.034238845
000180 2e b4 09 bc 6d ba 64 bd 5e d8 19 bd bc f6 2b 3d
       -0.008404775 -0.055841852 -0.03755986 0.04198335
